move_15_model.tflite (tflite, 105824 bytes, 5 tensors)

Conv2D_1_bias f4 [32]
0.0 0.0 0.0 0.0 0.0 0.0 0.0 0.0
0.0 0.0 0.0 0.0 0.0 0.0 0.0 0.0
0.0 0.0 0.0 0.0 0.0 0.0 0.0 0.0
0.0 0.0 0.0 0.0 0.0 0.0 0.0 0.0
00000000: 0000 0000 0000 0000 0000 0000 0000 0000
00000010: 0000 0000 0000 0000 0000 0000 0000 0000
00000020: 0000 0000 0000 0000 0000 0000 0000 0000
00000030: 0000 0000 0000 0000 0000 0000 0000 0000
00000040: 0000 0000 0000 0000 0000 0000 0000 0000
00000050: 0000 0000 0000 0000 0000 0000 0000 0000
00000060: 0000 0000 0000 0000 0000 0000 0000 0000
00000070: 0000 0000 0000 0000 0000 0000 0000 0000

MatMul_bias f4 [15]
-0.39660558 1.0886791 -0.8479061 -0.023848146 1.0039638 -0.019911956 -0.9242102 -1.9413064
-0.6494298 -0.4414808 0.89164186 1.7276005 1.177117 0.4729959 -0.8696366
00000000: e30f cbbe d659 8b3f 6010 59bf 305d c3bc
00000010: e381 803f 661e a3bc 0a99 6cbf ba7c f8bf
00000020: 0841 26bf c509 e2be a442 643f 0322 dd3f
00000030: c5ab 963f 852c f23e 81a0 5ebf

Variable f4 [32, 1, 20, 1]
-0.20406832 -0.20987247 -0.20480552 -0.18301773 -0.14833143 -0.12101372 -0.053529885 -0.014939047
0.033128064 0.09273207 0.113831036 0.10198632 0.1159952 0.1427896 0.14305952 0.120659076
0.098291814 0.08323167 0.1000904 0.09736916 -0.029946452 -0.015828848 -0.012321723 0.005689825
0.076188214 0.093762025 0.13498428 0.09909594 0.13740541 0.10459525 0.111788124 0.07102146
0.08246463 0.10554797 0.072434664 0.09735414 0.07525023 0.07294468 0.045925587 0.029015282
-0.046559215 -0.06703355 -0.08791863 -0.07646469 -0.085797034 -0.09523733 -0.069834985 -0.091352426
-0.08961302 -0.093579136 -0.12133668 -0.113440484 -0.12836991 -0.13820782 -0.11752196 -0.07905846
-0.08553562 -0.10781109 -0.06140545 -0.030870264 -0.08020145 -0.102713086 -0.12591904 -0.122310914
-0.12437124 -0.1256399 -0.112556204 -0.11400217 -0.066105135 -0.053176843 -0.036307704 -0.038103655
-0.029877877 -0.05063186 -0.074503295 -0.09578038 -0.06925407 -0.10844447 -0.09791676 -0.055628307
0.07551353 0.08747007 0.12999614 0.13316543 0.1580965 0.14648199 0.124158084 0.10791019
0.089828566 0.054596998 0.052230068 0.06883839 0.07529142 0.07270404 0.08199363 0.07419766
0.041800205 0.013958988 0.009269334 -0.040382605 -0.020970639 0.0019719545 0.015596598 0.056332532
0.08424875 0.09127307 0.120542936 0.119730376 0.14508878 0.13737747 0.126873 0.08933483
0.075355485 0.07305349 0.08295671 0.06565193 0.040147364 0.042632427 0.044803314 0.028410425
0.012621969 -0.01752987 -0.04497493 -0.06704558 -0.09612845 -0.115685225 -0.11160131 -0.114891775
-0.114247195 -0.10785462 -0.122536175 -0.14036474 -0.12873627 -0.13896993 -0.13059053 -0.10738659
-0.0997045 -0.092166424 -0.054667387 -0.022432167 -0.03478131 -0.074936025 -0.073299706 -0.116597034
-0.10780075 -0.1257108 -0.12514524 -0.11506423 -0.12751259 -0.13749734 -0.098851696 -0.10166839
-0.083504595 -0.090207756 -0.084391356 -0.10922215 -0.104697235 -0.10216251 -0.08315596 -0.04808869
0.055841777 0.09770233 0.08354372 0.09745393 0.085055545 0.08610753 0.08260496 0.09655663
0.109284885 0.13027488 0.09351004 0.08454376 0.067695685 0.066959895 0.03841836 0.04962504
0.04621359 0.011519848 0.0040836935 -0.030455193 -0.03438246 -0.07835656 -0.08952714 -0.090208165
-0.10811385 -0.12782007 -0.1211783 -0.13519116 -0.11927236 -0.12591772 -0.11847226 -0.10525025
-0.075703226 -0.0808058 -0.07301857 -0.09600713 -0.1182983 -0.10289791 -0.08889371 -0.071293004
0.009535949 -0.015891489 -0.012004586 -0.010125616 0.027223662 0.06072179 0.07623771 0.06677826
0.08387652 0.08468266 0.11361567 0.12179001 0.124503635 0.1176419 0.088477716 0.079313114
0.08645801 0.079348035 0.048279695 0.018152166 0.10717022 0.12771524 0.117242925 0.14595678
0.15074958 0.119399026 0.110622816 0.096262105 0.06799353 0.07430342 0.087501064 0.040488597
0.068698876 0.033247337 0.03382351 0.009835024 0.002131526 -0.007567097 -0.049500097 -0.082562886
0.0873346 0.09657226 0.11090554 0.09802232 0.10409661 0.10381094 0.09599418 0.07486738
0.06307381 0.074433014 0.062208913 0.046214905 0.061494455 0.056580152 0.04464113 0.033302963
00000000: 49f7 50be cfe8 56be 8ab8 51be 0069 3bbe
00000010: 32e4 17be 0bd6 f7bd 2742 5bbd e8c2 74bc
00000020: 4bb1 073d 50ea bd3d 3f20 e93d 34de d03d
00000030: e48e ed3d 7037 123e 327e 123e 1b1c f73d
00000040: 384d c93d 5e75 aa3d 32fc cc3d 7b69 c73d
00000050: 4352 f5bc 80ab 81bc 0de1 49bc b671 ba3b
00000060: 9108 9c3d 4e06 c03d 5239 0a3e d0f2 ca3d
00000070: 01b4 0c3e 0936 d63d 2cf1 e43d b373 913d
00000080: 37e3 a83d 8929 d83d a058 943d 9b61 c73d
00000090: cb1c 9a3d 0564 953d 781c 3c3d 75b1 ed3c
000000a0: e0b4 3ebd e348 89bd af0e b4bd 8599 9cbd
000000b0: 5bb6 afbd ca0b c3bd a505 8fbd fb16 bbbd
000000c0: 0887 b7bd 6ba6 bfbd 5e7f f8bd 7c53 e8bd
000000d0: 6773 03be 5a86 0dbe 5aaf f0bd 67e9 a1bd
000000e0: 4d2d afbd 10cc dcbd 4884 7bbd a3e3 fcbc
000000f0: a840 a4bd 3d5b d2bd ecf0 00be 257e fabd
00000100: 59b6 febd bfa7 00be de83 e6bd f879 e9bd
00000110: 2162 87bd f6cf 59bd 63b7 14bd 9412 1cbd
00000120: 73c2 f4bc 5a63 4fbd 2f95 98bd 8128 c4bd
00000130: 14d5 8dbd 2218 debd 9588 c8bd 82da 63bd
00000140: d6a6 9a3d 8223 b33d b51d 053e 855c 083e
00000150: 0de4 213e 60ff 153e 9846 fe3d 0500 dd3d
00000160: 0af8 b73d 1aa1 5f3d 32ef 553d 24fb 8c3d
00000170: 6332 9a3d dbe5 943d 47ec a73d f1f4 973d
00000180: b136 2b3d 3db4 643c 68de 173c 3b68 25bd
00000190: 9eca abbc e83b 013b e088 7f3c f1bc 663d
000001a0: 9c8a ac3d 60ed ba3d 37df f63d 3335 f53d
000001b0: 2792 143e aeac 0c3e ffea 013e 2ef5 b63d
000001c0: fa53 9a3d 119d 953d 35e5 a93d 8574 863d
000001d0: 9071 243d 579f 2e3d ae83 373d fbbc e83c
000001e0: 60cc 4e3c cd9a 8fbc a237 38bd 314f 89bd
000001f0: fede c4bd 60ec ecbd 3a8f e4bd 614c ebbd
00000200: 6ffa e9bd e2e2 dcbd 3ff4 fabd c6bb 0fbe
00000210: 71d3 03be 224e 0ebe 86b9 05be 80ed dbbd
00000220: df31 ccbd c0c1 bcbd e9ea 5fbd aac3 b7bc
00000230: d976 0ebd 0f78 99bd 281e 96bd 6dca eebd
00000240: a4c6 dcbd 55ba 00be 1326 00be cca6 ebbd
00000250: a992 02be 1acc 0cbe c272 cabd 8437 d0bd
00000260: 7504 abbd d8be b8bd 60d5 acbd ddaf dfbd
00000270: 816b d6bd 943a d1bd ac4d aabd a5f8 44bd
00000280: 59ba 643d 2918 c83d f818 ab3d ed95 c73d
00000290: 9a31 ae3d 2559 b03d ca2c a93d 7cbf c53d
000002a0: c1d0 df3d c766 053e 3182 bf3d 4725 ad3d
000002b0: 09a4 8a3d 4522 893d 925c 1d3d a043 4b3d
000002c0: 764a 3d3d bfbd 3c3c 81d0 853b 2b7d f9bc
000002d0: 9fd4 0cbd 6779 a0bd 015a b7bd 0fbf b8bd
000002e0: cb6a ddbd 44e3 02be 542c f8bd 8d6f 0abe
000002f0: 1145 f4bd 93f0 00be 96a1 f2bd 718d d7bd
00000300: 4b0a 9bbd 837d a5bd c38a 95bd 639f c4bd
00000310: 6146 f2bd 24bc d2bd e80d b6bd 1102 92bd
00000320: ab3c 1c3c de2e 82bc e2ae 44bc e9e5 25bc
00000330: 2804 df3c 69b7 783d 8422 9c3d 0ac3 883d
00000340: 74c7 ab3d 1a6e ad3d 55af e83d 0a6d f93d
00000350: c3fb fe3d 3dee f03d ce33 b53d ea6e a23d
00000360: e610 b13d 3981 a23d eec0 453d dab3 943c
00000370: 0f7c db3d c9c7 023e 0f1d f03d b275 153e
00000380: 195e 1a3e 7a87 f43d 378e e23d 1125 c53d
00000390: 3140 8b3d 642c 983d c233 b33d 5fd7 253d
000003a0: ffb1 8c3d 5c2e 083d 858a 0a3d 1523 213c
000003b0: 12b1 0b3b 69f5 f7bb 9dc0 4abd bb16 a9bd
000003c0: 7cdc b23d adc7 c53d 7222 e33d edbf c83d
000003d0: 9a30 d53d d59a d43d 9998 c43d 1254 993d
000003e0: d72c 813d 5670 983d c6ce 7e3d d74b 3d3d
000003f0: 9ce1 7b3d 97c0 673d 9ed9 363d b068 083d

Variable_1 f4 [32, 1, 5, 32]
-0.007650572 -0.016335612 -0.024516564 -0.00080047233 -0.002197151 -0.014237653 -0.022689126 -0.013170778
0.0050416407 0.009764286 -0.008744414 -0.009102583 -0.0021692524 0.0034652585 0.0034878084 0.00852285
0.004729163 -0.0020879812 -0.010641221 0.006992237 0.008505632 -0.0020992707 0.015879674 -0.02302678
-0.0075465026 -0.004824778 -0.013416397 -0.0064041214 -0.021607619 -0.017261455 0.008157817 -0.008479384
-0.013000099 0.0012174804 -0.007357031 -0.007536776 -0.025772553 -0.0045904163 -0.006416524 -0.018363409
-0.010554229 0.002987465 -0.0044537 0.0015072051 -0.008028345 0.002091225 0.0022038552 0.012677754
-0.008848142 -0.019850671 0.003959752 0.0084822485 -0.0028837132 0.012851456 -0.009899915 -0.0115574915
-0.0045056655 0.008493627 -0.02382712 -0.0026156476 0.012222994 -0.0039141052 -0.0011370784 -0.0016904137
-0.0050286064 -0.032233145 0.014006471 -0.012259718 -0.0046735187 -0.0006929297 -0.0018052843 0.007473827
0.00030253083 -0.013443706 -0.017894812 0.025023013 -0.0016613273 0.0036804806 -0.0064641363 0.00030158676
-0.020752817 -0.017702917 -0.011591761 -0.0024341117 -0.0078109973 -0.0037026196 -0.021347575 -0.002236531
-0.020655887 -0.007076458 -0.0028916085 0.004584503 -0.0005379028 -0.0049625067 -0.024060095 0.0018202219
0.0046172035 -0.0067235823 0.00053190807 -0.011026904 -0.026377873 -0.006732336 0.00032854805 -0.0017386524
-0.006272946 0.007735836 0.011031355 0.00702211 -0.0068999887 -0.008775668 -0.0029149111 0.017445533
-0.0026299579 -0.008650652 -0.008927797 -0.0094676 -0.0066598235 -0.018693587 -0.01846568 0.0056849965
-0.009166734 -0.02463271 -0.017429488 -0.009606031 -0.0111557655 -0.009945957 -0.007270985 -0.0047260425
-0.006113949 -0.011168753 0.00056425505 -0.02171342 -0.00095199514 -0.011749902 0.0035372884 -0.003528265
-0.017885769 4.530855e-05 -0.0074891765 -0.00514619 -0.012041548 0.015413642 -0.0056847 -0.01227855
-0.029096477 -0.010942325 -0.015038729 -0.0065659066 -0.0047335974 -0.012530189 -0.014341094 -0.012307764
-0.008856533 -0.0030606207 -0.008803746 -0.0010545566 -0.0035682833 -0.011326527 -0.0031618879 -0.00021556037
0.074780695 0.04699461 0.041512217 0.03786142 0.052899282 0.07261816 0.03561931 0.020250862
0.034095008 0.042398583 0.050286964 0.032774013 0.069441244 0.035288762 0.07145017 0.04181421
0.04597913 0.041841745 0.045041606 0.043449648 0.031160677 0.0380689 0.043641344 0.03540801
0.023495968 0.032493614 0.028241666 0.054179624 0.118598886 0.058362037 0.038344856 0.043171734
0.07185934 0.07369699 0.004938885 0.016364953 0.091959536 0.078542 -0.01660744 0.007113881
0.08838452 -0.005072777 0.06800386 0.08369591 0.0750036 0.0047851326 0.08492194 -8.029672e-05
0.08552806 0.075349584 0.090495415 0.10063889 0.013332745 6.0188046e-05 0.01687746 0.0057131173
-0.015381195 0.07589629 0.09081504 0.07096825 0.037512094 0.09011266 0.014725442 0.07372248
0.029783292 -0.0019065045 0.0026786085 0.015194328 -0.010658721 -0.017063674 0.0123960795 0.029264806
0.011243906 0.012493417 0.0068184645 0.0104521215 0.014232833 0.0142187765 -0.0103774 0.005647807
-0.015265379 -0.008951636 -0.011848906 0.014127958 0.009763358 0.0021040812 0.0067876377 0.025284134
0.019507619 -0.0139683345 -0.0034036573 -0.006653899 0.052733015 0.0014315773 0.012955322 0.011856132
00000000: a6b1 fabb 43d2 85bc f6d6 c8bc cad6 51ba
00000010: 14fe 0fbb 0c45 69bc 8cde b9bc 3fca 57bc
00000020: 5934 a53b 62fa 1f3c bb44 0fbc 0023 15bc
00000030: 042a 0ebb 6419 633b b793 643b 6da3 0b3c
00000040: 18f7 9a3b 83d6 08bb 8458 2ebc 231f e53b
00000050: 355b 0b3c eb93 09bb 1716 823c a8a2 bcbc
00000060: a748 f7bb 2c19 9ebb 73d0 5bbc aad9 d1bb
00000070: 7602 b1bc e567 8dbc 5da8 053c 1ded 0abc
00000080: 5efe 54bc dd93 9f3a 4013 f1bb 0ff7 f6bb
00000090: f620 d3bc 346b 96bb b441 d2bb dc6e 96bc
000000a0: a5eb 2cbc 58c9 433b 58f0 91bb 698d c53a
000000b0: 5289 03bc ef0c 093b 8e6e 103b 5bb6 4f3c
000000c0: ccf7 10bc e09d a2bc cfc0 813b 21f9 0a3c
000000d0: aefc 3cbb ea8e 523c 4133 22bc a25b 3dbc
000000e0: 43a4 93bb db28 0b3c 1831 c3bc 496b 2bbb
000000f0: f442 483c e541 80bb 050a 95ba df90 ddba
00000100: 02c7 a4bb e706 04bd 667b 653c fcdc 48bc
00000110: 5124 99bb baa5 35ba 4a9f ecba 01e7 f43b
00000120: 009d 9e39 fd42 5cbc 2498 92bc 10fd cc3c
00000130: e5c0 d9ba 3834 713b 1bd1 d3bb 4a1e 9e39
00000140: d001 aabc b505 91bc 5feb 3dbc 9e85 1fbb
00000150: 65f3 ffbb a6a7 72bb 1ce1 aebc c492 12bb
00000160: 8936 a9bc a2e1 e7bb 2481 3dbb 9939 963b
00000170: 0c02 0dba 869c a2bb ad19 c5bc 8394 ee3a
00000180: e94b 973b 7f51 dcbb bf6f 0b3a 30aa 34bc
00000190: 6916 d8bc ed9a dcbb f940 ac39 7ee3 e3ba
000001a0: 498d cdbb e57c fd3b dbbc 343c ba19 e63b
000001b0: 4d19 e2bb d2c7 0fbc 1808 3fbb efe9 8e3c
000001c0: 5f5b 2cbb 77bb 0dbc e545 12bc fe1d 1bbc
000001d0: a63a dabb 4b23 99bc 5645 97bc 3549 ba3b
000001e0: 1230 16bc 89ca c9bc 49c8 8ebc 9d62 1dbc
000001f0: acc6 36bc 5ef4 22bc 7141 eebb ebdc 9abb
00000200: 8657 c8bb 25fd 36bc 84ea 133a 58e0 b1bc
00000210: 508f 79ba a982 40bc dad1 673b 773a 67bb
00000220: 2d85 92bc af09 3e38 c467 f5bb 5fa1 a8bb
00000230: ea49 45bc 8089 7c3c b846 babb f92b 49bc
00000240: bc5b eebc 7047 33bc 0065 76bc d126 d7bb
00000250: 4b1c 9bbb 6c4b 4dbc e8f6 6abc 81a6 49bc
00000260: fe1a 11bc b294 48bb 963d 10bc 0c39 8aba
00000270: dcd9 69bb e692 39bc ad37 4fbb 0c08 62b9
00000280: 9f26 993d 6c7d 403d b708 2a3d 9414 1b3d
00000290: ebac 583d d4b8 943d 8ee5 113d 23e5 a53c
000002a0: 35a7 0b3d 23aa 2d3d b4f9 4d3d 0b3e 063d
000002b0: 3637 8e3d f38a 103d 7754 923d 6145 2b3d
000002c0: 9d54 3c3d 4062 2b3d 8c7d 383d 42f8 313d
000002d0: ad44 ff3c 23ee 1b3d 44c1 323d fd07 113d
000002e0: 9e7a c03c 0618 053d 115b e73c 74eb 5d3d
000002f0: f9e3 f23d 080d 6f3d 7f0f 1d3d d8d4 303d
00000300: fd2a 933d 73ee 963d 5fd6 a13b cb0f 863c
00000310: 4855 bc3d a1da a03d 530c 88bc 8f1b e93b
00000320: f102 b53d 8a39 a6bb 9c45 8b3d c368 ab3d
00000330: 7d9b 993d 9acc 9c3b 8eeb ad3d f964 a8b8
00000340: 5629 af3d e250 9a3d a955 b93d c31b ce3d
00000350: 9671 5a3c 6c72 7c38 9942 8a3c 1a35 bb3b
00000360: 6801 7cbc 846f 9b3d 3cfd b93d cd57 913d
00000370: 48a6 193d fc8c b83d fb42 713c d0fb 963d
00000380: 17fc f33c ade3 f9ba 988b 2f3b a1f1 783c
00000390: eba1 2ebc 1ec9 8bbc ed18 4b3c bfbc ef3c
000003a0: 5c38 383c 30b1 4c3c 6d6d df3b 603f 2b3c
000003b0: d430 693c dff5 683c f805 2abc 3d11 b93b
000003c0: a41b 7abc e2a9 12bc ea21 42bc f378 673c
000003d0: 7ef6 1f3c a0e4 093b d56a de3b ac20 cf3c
000003e0: 71ce 9f3c 71db 64bc e50f 5fbb f308 dabb
000003f0: 93fe 573d c3a3 bb3a 8f42 543c 3940 423c

W3/transpose f4 [15, 1344]
0.020142347 0.030508215 0.056649353 -0.027267404 0.073088385 0.1285469 0.053896375 0.051075324
0.096539736 0.0056642294 0.14990574 0.036914494 0.06320556 0.06845277 0.031928226 0.05498847
0.048502684 -0.04642107 0.09535967 -0.022902139 -0.031061165 -0.072332986 -0.063068956 0.035954867
0.01405183 -0.034658305 0.026173223 0.042480227 0.029936247 0.041168034 0.05966249 -0.042233806
-0.012680748 0.09278068 0.054250557 0.011120455 0.02899396 0.062410366 0.031223955 0.06711087
0.0487635 0.03228171 0.06969636 -0.040424492 0.07020158 0.012265895 -0.032575004 0.048166595
0.032482076 -0.025688285 0.054279104 0.048518702 -0.019769594 0.01821865 0.014632247 -0.05221465
0.04545881 0.039053388 -0.06401504 -0.05321827 0.040337536 -0.08842319 -0.044053506 0.050041206
0.031142408 -0.06882064 0.018676497 -0.05627701 0.070080005 0.0059172516 0.026919814 -0.07951209
-0.04941154 0.03865282 -0.06391879 -0.038903207 5.129112e-05 -0.08428261 0.03195877 -0.06655551
-0.05658443 -0.054448284 0.03586337 0.0074937465 -0.0031606012 -0.011913336 -0.04486443 0.0026930922
0.012447464 0.0038529492 -0.031451587 -0.00055039354 0.061829336 -0.13403793 -0.11871806 0.037377194
-0.053617332 0.010111357 -0.025575217 0.054534663 -0.036578335 -0.014157793 -0.031258922 -0.08756776
-0.020501502 0.04799685 -0.016841486 0.02242806 -0.010780757 -0.00051847525 -0.048614856 -0.016027369
-0.036500767 -0.015026714 0.0186117 -0.019073047 -0.053948868 -0.02869103 -0.03382115 -0.014871369
0.0320249 -0.017254122 0.013556737 0.048503146 -0.058653407 -0.043581318 -0.052107394 0.056101933
-0.02486272 0.037367072 -0.053236246 0.00871944 0.053318612 0.029895041 0.021605475 0.045836866
-0.05428393 0.0642467 0.003152819 0.02950857 0.013908726 -0.07444192 0.031049963 -0.03314488
-0.057639595 0.038387954 0.045244012 -0.071753934 0.009989428 -0.06790264 -0.033318713 -0.046338674
-0.016620716 -0.008590296 -0.031603962 0.059719935 -0.06918399 -0.035577033 0.025081983 -0.038965855
0.030033385 -0.058223832 0.02982302 -0.0011110774 -0.042922832 0.022224505 0.014576638 -0.05211119
-0.045737643 0.019412091 -0.050576027 -0.08417209 0.040517077 0.025958989 -0.034921568 -0.026598353
-0.055997692 0.034127787 -0.050648585 0.009550482 -0.0041695395 -0.060649417 0.04251138 -0.01844267
0.053701106 -0.026189314 -0.059861254 0.0055844327 -0.07446589 -0.013777585 -0.056200843 -0.013147428
-0.033648912 -0.013697702 -0.013928882 0.034394156 -0.08824105 -0.048596527 -0.022956513 0.026323913
-0.021622695 0.0461419 0.03588822 -0.007611927 0.013588811 -0.087889686 -0.08066062 -0.004305159
-0.058348753 -0.040335964 0.029759564 -0.017908948 0.019078728 0.023849005 -0.02329725 -0.027683156
0.038031735 0.06660086 0.02146072 -0.047884393 -0.02276676 0.029060971 0.03164189 -0.043415587
-0.010607106 -0.049397353 0.014704903 0.07102124 0.031490114 0.026367415 0.022983527 -0.07018435
-0.036302026 0.057077266 0.04393479 0.054849163 0.021092424 -0.05892416 -0.013262197 -0.013487632
0.049118683 -0.038824346 -0.05096888 0.033007868 -0.041463006 -0.06608085 0.001282714 -0.050169863
0.033940583 -0.011927213 -0.055611737 0.00061225623 -0.07305369 0.034199763 0.034804147 0.022697708
00000000: 9001 a53c 5dec f93c 2709 683d e45f dfbc
00000010: 5daf 953d cca1 033e 72c2 5c3d 5c34 513d
00000020: a0b6 c53d 009b b93b e480 193e a733 173d
00000030: eb71 813d f730 8c3d 2cc7 023d 973b 613d
00000040: c0aa 463d 0524 3ebd ee4b c33d 449d bbbc
00000050: fc73 febc 5123 94bd 4c2a 81bd 6945 133d
00000060: a639 663c def5 0dbd 3a69 d63c bfff 2d3d
00000070: dc3c f53c d09f 283d a860 743d 5bfd 2cbd
00000080: e9c2 4fbc cc03 be3d d535 5e3d 9232 363c
00000090: be84 ed3c 03a2 7f3d 61c9 ff3c 6c71 893d
000000a0: 3cbc 473d d439 043d f7bc 8e3d 2794 25bd
000000b0: d9c5 8f3d e4f6 483c 5e6d 05bd 564a 453d
000000c0: ed0b 053d 3d70 d2bc c453 5e3d 8cbb 463d
000000d0: d8f3 a1bc 473f 953c 18bc 6f3c 07df 55bd
000000e0: 0433 3a3d 72f6 1f3d 511a 83bd 67fb 59bd
000000f0: f938 253d 3817 b5bd 7371 34bd 02f8 4c3d
00000100: 5d1e ff3c d6f1 8cbd 74ff 983c b982 66bd
00000110: 1b86 8f3d 81e5 c13b f186 dc3c 3cd7 a2bd
00000120: c163 4abd 6b52 1e3d dbe7 82bd f858 1fbd
00000130: 6c21 5738 5c9c acbd 33e7 023d 414e 88bd
00000140: 13c5 67bd 2a05 5fbd 78e5 123d 1a8e f53b
00000150: 1722 4fbb 2730 43bc c4c3 37bd 977e 303b
00000160: 73f0 4b3c c381 7c3b 61d3 00bd 4948 10ba
00000170: c240 7d3d 3d41 09be 7422 f3bd d418 193d
00000180: d99d 5bbd 1baa 253c 1e83 d1bc bd5f 5f3d
00000190: 2ad3 15bd 16f6 67bc 5b09 00bd ba56 b3bd
000001a0: c4f2 a7bc 5898 443d 28f7 89bc 0dbb b73c
000001b0: c6a1 30bc 49ea 07ba 5f20 47bd d44b 83bc
000001c0: d481 15bd 9b32 76bc 9077 983c 143f 9cbc
000001d0: 7df9 5cbd 7309 ebbc 0c88 0abd 0ba7 73bc
000001e0: 8b2c 033d 8458 8dbc 141d 5e3c 3cab 463d
000001f0: 8e3e 70bd 5382 32bd 906e 55bd 24cb 653d
00000200: e7ac cbbc 370e 193d 400e 5abd fbdb 0e3c
00000210: 9e64 5a3d 72e6 f43c f7fd b03c 70bf 3b3d
00000220: d458 5ebd c693 833d 869f 4e3b f5bb f13c
00000230: 6de1 633c 0175 98bd 7e5c fe3c edc2 07bd
00000240: 7f17 6cbd b03c 1d3d c951 393d baf3 92bd
00000250: b3aa 233c 8a10 8bbd 3479 08bd 9fcd 3dbd
00000260: 2b28 88bc 50be 0cbc 2873 01bd e49c 743d
00000270: 56b0 8dbd 39b9 11bd bb78 cd3c a99a 1fbd
00000280: 9308 f63c 1d7c 6ebd 684f f43c 92a1 91ba
00000290: dacf 2fbd 2a10 b63c dad2 6e3c 8b72 55bd
000002a0: 6557 3bbd 1b06 9f3c cf28 4fbd 6b62 acbd
000002b0: 3cf5 253d f2a7 d43c eb09 0fbd cae4 d9bc
000002c0: d65d 65bd 94c9 0b3d e474 4fbd a079 1c3c
000002d0: a2a0 88bb 866b 78bd 6a20 2e3d 1515 97bc
000002e0: b1f5 5b3d f98a d6bc 1331 75bd 9efd b63b
000002f0: 9381 98bd 61bb 61bc db32 66bd 4f68 57bc
00000300: 71d3 09bd 546c 60bc f735 64bc e3e0 0c3d
00000310: b9b7 b4bd 270d 47bd 4c0f bcbc 3fa5 d73c
00000320: 1422 b1bc 4aff 3c3d 87ff 123d 796d f9bb
00000330: 9ba3 5e3c 82ff b3bd 6531 a5bd 4b12 8dbb
00000340: 1aff 6ebd 5337 25bd 54ca f33c c9b5 92bc
00000350: fe4a 9c3c fd5e c33c e0d9 bebc c9c7 e2bc
00000360: 2ac7 1b3d 0866 883d 64ce af3c 6d22 44bd
00000370: 5b81 babc 4611 ee3c ed9a 013d 8bd4 31bd
00000380: 6dc9 2dbc e154 4abd d5ec 703c 9573 913d
00000390: c7fb 003d 7a00 d83c f347 bc3c d0bc 8fbd
000003a0: 6fb1 14bd dac9 693d f7f4 333d 84a9 603d
000003b0: 05ca ac3c 765a 71bd b049 59bc 3bfb 5cbc
000003c0: ac30 493d 4706 1fbd bfc4 50bd 4233 073d
000003d0: 1dd5 29bd 6655 87bd bd20 a83a ea7e 4dbd
000003e0: 4805 0b3d 5b6a 43bc 22c9 63bd d27f 203a
000003f0: 2c9d 95bd 0d15 0c3d cb8e 0e3d 8bf0 b93c
